developpement/MNIST/models/MNIST.pth (torch, 183599 bytes, 10 tensors)

conv1.weight f4 [8, 1, 5, 5]
-0.22922193 -0.38224018 0.03789826 0.32324475 0.4557188 -0.20518869 -0.38996762 0.0791688
0.33915934 0.4459972 -0.43988854 -0.3771656 0.11978651 0.31535986 0.347946 -0.31201103
0.046289284 0.051885154 0.15535243 0.2201006 -0.1979015 -0.023118265 0.16648227 0.30408883
0.27283162 -0.08458319 0.20260786 0.27571753 0.33999118 0.14036433 0.14730997 0.21978071
0.14411946 0.26339617 0.3467324 -0.13481572 -0.12583165 -0.24780701 -0.26979586 0.027881674
-0.1252235 -0.2427339 -0.1999111 -0.124636196 -0.23568116 0.09880028 0.0070070475 -0.17766869
-0.029664181 -0.21423751 0.17004037 0.2789163 0.19272506 -0.07661234 -0.32934108 0.25409678
0.24732545 0.10330006 -0.044521656 -0.20347607 0.30971023 0.33079433 -0.048918143 -0.40692893
-0.39528543 0.31383666 0.19456682 -0.17486472 -0.31859192 0.0009649969 0.19055697 0.02687301
-0.05553585 -0.06522132 -0.12597598 -0.043260187 0.08149763 0.23101671 0.24212606 -0.04219326
0.06121612 0.27919734 -0.020295788 0.22946689 0.3380705 -0.06813375 -0.031204112 0.05551105
-0.0041460055 -0.015797704 -0.17956598 -0.13348295 -0.17944962 -0.21660684 -0.06290162 -0.26650587
-0.29855675 -0.28009847 -0.21537417 -0.0047491016 0.07828599 -0.0754213 0.13035972 -0.19411385
-0.046009105 -0.21678263 0.0283906 -0.03176322 -0.14691809 -0.043950528 -0.041455645 0.075178966
0.05775934 -0.22786076 -0.19218981 0.09138239 -0.007708155 0.09183118 0.04383139 -0.14112891
0.056792647 0.04319689 0.27471942 0.15306228 0.14756331 -0.29947203 -0.30370486 -0.3278996
-0.23648454 -0.16851793 -0.25001642 -0.37251166 -0.13080129 -0.22338952 -0.22830687 -0.17787144
-0.30151838 -0.40780994 -0.021753151 -0.18855837 -0.26444185 -0.3798938 -0.08907463 -0.24219885
0.048938554 -0.2884957 -0.09089247 -0.10950777 0.08564099 0.06567146 -0.024073746 -0.28280738
-0.21235959 -0.20654617 -0.32936618 -0.20370524 0.07386084 -0.09213122 0.02766538 -0.14102173
0.24911714 0.078870565 0.13931288 0.17899941 0.13653012 0.20529091 0.25918987 0.15597667
0.20217302 0.037343398 0.022550639 0.056169514 -0.0643891 0.14114392 0.22712311 -0.23162344
-0.037644383 0.22442222 0.22592708 0.04402599 0.25835738 0.28861198 0.14209296 0.20429248
-0.07785596 0.17844456 0.116866186 0.15392324 0.0887502 -0.10531992 0.17033374 -0.16217883
-0.23273593 -0.0843661 0.010780758 -0.093376055 -0.21577238 -0.1820354 -0.26601827 -0.13253482
00000000: 27b9 6abe fcb4 c3be 353b 1b3d 5680 a53e
00000010: f953 e93e fc1c 52be d6a9 c7be 4023 a23d
00000020: 4ba6 ad3e bf59 e43e 1239 e1be d91b c1be
00000030: a152 f53d d976 a13e fa25 b23e e9bf 9fbe
00000040: d599 3d3d 8785 543d b514 1f3e 0d62 613e
00000050: b1a6 4abe 8462 bdbc 547a 2a3e 88b1 9b3e
00000060: 96b0 8b3e f439 adbd 6f78 4f3e d92a 8d3e
00000070: 5313 ae3e abbb 0f3e 6dd8 163e 320e 613e
00000080: 0d94 133e dddb 863e e986 b13e 220d 0abe
00000090: 03da 00be 1fc1 7dbe af22 8abe 1c68 e43c
000000a0: 973a 00be 3c8f 78be 7fb5 4cbe 4341 ffbd
000000b0: 6756 71be cd57 ca3d 609b e53b c8ee 35be
000000c0: 4c02 f3bc 1461 5bbe 101f 2e3e 1ece 8e3e
000000d0: b859 453e eee6 9cbd 659f a8be f918 823e
000000e0: e242 7d3e fb8e d33d 575c 36bd 085c 50be
000000f0: 5792 9e3e e05d a93e 645e 48bd fd58 d0be
00000100: da62 cabe 33af a03e 863c 473e bd0f 33be
00000110: 7b1e a3be d9f7 7c3a 5e21 433e c924 dc3c
00000120: 8f79 63bd c192 85bd d9ff 00be 9831 31bd
00000130: 3be8 a63d a58f 6c3e e5ef 773e d7d2 2cbd
00000140: c1bd 7a3d f4f2 8e3e 5a43 a6bc 5ef9 6a3e
00000150: 9417 ad3e b589 8bbd c49f ffbc 8e5f 633d
00000160: 37db 87bb 306a 81bc 25e0 37be c1af 08be
00000170: a4c1 37be 2fce 5dbe 91d2 80bd 7573 88be
00000180: 6edc 98be 1169 8fbe 0c8b 5cbe 5a9e 9bbb
00000190: 6854 a03d 7c76 9abd 057d 053e c8c5 46be
000001a0: 0b74 3cbd 44fc 5dbe 6793 e83c 261a 02bd
000001b0: b271 16be 7805 34bd 65cd 29bd 6ef7 993d
000001c0: 0f95 6c3d 5554 69be 68cd 44be b126 bb3d
000001d0: b194 fcbb fc11 bc3d 8b88 333d 1984 10be
000001e0: 689f 683d 39ef 303d 06a8 8c3e 5cbc 1c3e
000001f0: d61a 173e 6654 99be 347f 9bbe 75e2 a7be
00000200: 0129 72be f78f 2cbe 2702 80be d9b9 bebe
00000210: c6f0 05be 39c0 64be 47c9 69be ee23 36be
00000220: 9e60 9abe 77cc d0be aa33 b2bc 7215 41be
00000230: ec64 87be 7181 c2be c26c b6bd fa02 78be
00000240: cb73 483d b5b5 93be d525 babd 9c45 e0bd
00000250: 8b64 af3d c27e 863d 4e36 c5bc 21cc 90be
00000260: cb74 59be d780 53be afa2 a8be 1b98 50be
00000270: 5a44 973d 4baf bcbd 82a2 e23c 0068 10be
00000280: 9018 7f3e e486 a13d 09a8 0e3e 9f4b 373e
00000290: 8dce 0b3e c837 523e 89b4 843e 59b8 1f3e
000002a0: 7206 4f3e 64f5 183d 1ebc b83c 0112 663d
000002b0: 6fde 83bd 0888 103e f692 683e b22e 6dbe
000002c0: ff30 1abd f0ce 653e 6e59 673e 9954 343d
000002d0: 6b47 843e f3c4 933e d180 113e 0c32 513e
000002e0: f272 9fbd 2cba 363e 8a57 ef3d 0e9e 1d3e
000002f0: aac2 b53d f8b1 d7bd f86b 2e3e 3512 26be
00000300: 5452 6ebe 22c8 acbd c7a1 303c f23b bfbd
00000310: 6ff3 5cbe 7d67 3abe 8c33 88be 35b7 07be

conv1.bias f4 [8]
0.16382445 0.15283035 0.21487956 -0.060647856 -0.102945864 -0.0023139098 0.024325699 0.110977724
00000000: 99c1 273e 8f7f 1c3e 6309 5c3e e369 78bd
00000010: 48d5 d2bd f7a4 17bb b046 c73c 4a48 e33d

conv2.weight f4 [16, 8, 5, 5]
0.0010272735 0.0006790225 -0.08545708 -0.10062176 -0.027139585 0.088382415 0.027957086 -0.004165119
-0.02928757 0.043587387 0.11733932 0.021039369 0.06750149 0.047960848 -0.0025990908 0.05928397
0.082575515 0.12512815 0.12798227 -0.016586507 0.06774126 0.11069018 0.06645314 0.069181874
-0.036502752 0.031105656 -0.043750964 0.04121319 -0.051384125 0.02382396 0.0023413259 0.012401065
-0.048935484 0.03354456 -0.058304004 0.072660714 -0.03387472 -0.04027875 0.04082735 -0.057877813
-0.033504255 -0.05362001 -0.04133838 -0.07197857 0.07424843 0.022963913 -0.077768266 0.030951064
0.041777447 -0.0556786 0.028370518 0.062856846 0.038848322 -0.029300049 -0.014624853 0.013590383
0.02053196 0.03135292 0.043217286 -0.06804974 -0.015190943 0.07720232 -0.018091504 0.031390045
0.074253365 0.0078240745 -0.06852414 0.09296114 0.11176532 0.14781454 -0.058193684 -0.04461088
0.13900262 0.07387134 0.095246285 -0.041135885 -0.021855315 0.032505233 -0.039662544 0.08464012
-0.03894325 0.044461977 0.0011215295 0.0416076 -0.0050429036 -0.051389955 -0.013395103 -0.057491243
-0.066443324 0.010725935 0.060085647 0.0029728771 0.0012192222 -0.047594566 0.004260778 0.026911547
-0.029208751 -0.05761194 -0.059748076 -0.0031247295 0.047938284 0.052368183 0.045262385 0.0019232889
0.037226576 -0.058166806 -0.005034935 0.066760466 -0.028397145 0.054571066 -0.06808907 -0.004776036
0.02521861 -0.061032362 -0.07874418 -0.040436033 -0.04238583 0.015244337 0.019927863 -0.051302366
0.01714874 0.06011854 0.018105019 -0.00076321885 -0.03506149 0.05097798 0.029371668 -0.04069828
0.07977045 0.072692886 -0.008995548 -0.097188175 -0.12397566 0.03387146 0.06141483 -0.04055286
0.010269639 -0.112008214 0.033556584 -0.053478424 0.05575093 -0.026034333 0.02889382 -0.04906115
-0.049792916 -0.022210883 -0.047684487 -0.11382191 -0.00017209596 0.01818935 -0.040782236 0.038159452
0.027478391 0.0044731516 0.017927967 0.035500742 0.0695528 0.08720014 -0.009509931 0.01682388
0.023450958 0.008293313 -0.030666925 -0.057759687 -0.017900662 0.0058240406 0.04711116 0.022413313
-0.026112253 -0.064980306 0.07326079 -0.01711094 -0.04067077 -0.022637831 -0.062245153 -0.04720393
-0.066261984 0.05142957 -0.05218149 0.053298213 0.043608543 0.05805927 -0.042156626 0.01327991
-0.056252226 -0.034042697 0.07818717 0.032244213 0.055894595 -0.002820275 -0.022716656 -0.02425932
-0.03618146 0.052291024 -0.004840135 -0.06847266 0.014937175 0.03194296 0.076944076 0.04700011
-0.018424746 -0.05245207 0.011372529 0.024759106 -0.048535135 0.058164474 0.026714519 -0.025372222
-0.09619181 -0.08573728 0.07578226 -0.03194067 -0.002298646 -0.053807832 -0.08455435 -0.10892972
-0.004531969 -0.049875833 0.08147241 0.023061477 -0.13534638 0.02326892 0.015074078 0.1047955
-0.003194674 -0.0022741547 -0.011378406 0.022688622 0.05229489 0.043248814 -0.045247316 -0.0107607925
-0.0905113 -0.078295484 -0.029734356 -0.00011382175 0.03113176 0.11926079 0.07145642 0.008799671
0.11967511 0.17198597 0.15875837 0.06297541 0.053209778 0.022369377 0.08029801 -0.024417281
0.021942414 0.02821337 -0.00459952 -0.02391905 -0.010663458 0.020754695 -0.06631005 -0.06180497
00000000: 94a5 863a 6e00 323a 1f04 afbd c812 cebd
00000010: d653 debc d701 b53d 4206 e53c 8d7b 88bb
00000020: 7cec efbc b088 323d 994f f03d c15a ac3c
00000030: 393e 8a3d 9872 443d 8255 2abb c0d3 723d
00000040: 5a1d a93d 9821 003e c90d 033e 6de0 87bc
00000050: eebb 8a3d 88b1 e23d 9518 883d 3aaf 8d3d
00000060: e983 15bd 4ad1 fe3c 3634 33bd 29cf 283d
00000070: 2978 52bd 772a c33c ee70 193b d62d 4b3c
00000080: 9370 48bd 0566 093d 2ed0 6ebd 24cf 943d
00000090: 38c0 0abd 55fb 24bd 943a 273d 4911 6dbd
000000a0: c23b 09bd a8a0 5bbd 6f52 29bd 8069 93bd
000000b0: 900f 983d d11e bc3c f844 9fbd 168d fd3c
000000c0: d41e 2b3d 3e0f 64bd 4a69 e83c 17bb 803d
000000d0: 6b1f 1f3d a806 f0bc 149d 6fbc 33aa 5e3c
000000e0: a432 a83c eb6b 003d 9c04 313d a95d 8bbd
000000f0: 6fe3 78bc 401c 9e3d a234 94bc d992 003d
00000100: 2612 983d 8c30 003c 6256 8cbd 6962 be3d
00000110: 37e5 e43d b25c 173e 805c 6ebd e6b9 36bd
00000120: b456 0e3e db49 973d 7c10 c33d 1a7e 28bd
00000130: eb09 b3bc 3524 053d 3175 22bd cd57 ad3d
00000140: f582 1fbd c31d 363d 4900 933a bb6c 2a3d
00000150: f13e a5bb 467e 52bd 2277 5bbc f07b 6bbd
00000160: 7013 88bd d5bb 2f3c 5e1c 763d 9ad4 423b
00000170: 4fce 9f3a 85f2 42bd ff9d 8b3b 9b75 dc3c
00000180: 3147 efbc 7ffa 6bbd 66ba 74bd 43c8 4cbb
00000190: ef5a 443d 0580 563d 0d65 393d de16 fc3a
000001a0: e57a 183d 5140 6ebd 19fc a4bb b6b9 883d
000001b0: 21a1 e8bc e985 5f3d 4872 8bbd 4b80 9cbb
000001c0: 4297 ce3c 12fd 79bd a144 a1bd 41a0 25bd
000001d0: c49c 2dbd 62c3 793c c23f a33c 6e22 52bd
000001e0: 847b 8c3c dc3e 763d fa50 943c c012 48ba
000001f0: a39c 0fbd 49ce 503d da9c f03c 3db3 26bd
00000200: b15e a33d 02e0 943d 1062 13bc 980a c7bd
00000210: f3e6 fdbd cdbc 0a3d 1e8e 7b3d c11a 26bd
00000220: fd41 283c 9064 e5bd a172 093d 310c 5bbd
00000230: 165b 643d f445 d5bc bbb2 ec3c 58f4 48bd
00000240: a8f3 4bbd 99f3 b5bc cf50 43bd 761b e9bd
00000250: a874 34b9 d501 953c 460b 27bd 164d 1c3d
00000260: 5d1a e13c 8493 923b acdd 923c 3a69 113d
00000270: b371 8e3d fd95 b23d 8bcf 1bbc 3cd2 893c
00000280: 391c c03c ade0 073c 3439 fbbc 6c95 6cbd
00000290: 69a4 92bc 98d7 be3b a2f7 403d 209c b73c
000002a0: 5de9 d5bc 6514 85bd c109 963d 3e2c 8cbc
000002b0: 6596 26bd f972 b9bc c6f4 7ebd e858 41bd
000002c0: 5db4 87bd d0a7 523d 42bc 55bd 3a4f 5a3d
000002d0: df9e 323d 8fcf 6d3d 6dac 2cbd fb93 593c
000002e0: bc68 66bd 5b70 0bbd 9820 a03d 8212 043d
000002f0: bbf1 643d 5dd4 38bb 4818 babc 7bbb c6bc
00000300: 0333 14bd 1d2f 563d ff99 9ebb 653b 8cbd
00000310: 0ebb 743c 9fd6 023d db94 9d3d 3083 403d
00000320: 7eef 96bc fbd7 56bd d853 3a3c 9cd3 ca3c
00000330: c7cc 46bd df3d 6e3d 68d8 da3c 68d9 cfbc
00000340: 3600 c5bd 0797 afbd bb33 9b3d 38d4 02bd
00000350: e1a4 16bb 9a65 5cbd d52a adbd 8c16 dfbd
00000360: e980 94bb 9a4a 4cbd 02db a63d 6ceb bc3c
00000370: 3e98 0abe 769e be3c 44f9 763c 069f d63d
00000380: bc5d 51bb fc09 15bb 7e6c 3abc 7ddd b93c
00000390: 2b33 563d ab25 313d 4055 39bd 094e 30bc
000003a0: fd5d b9bd 6259 a0bd 7795 f3bc 96b3 eeb8
000003b0: 0808 ff3c 003f f43d be57 923d 7f2c 103c
000003c0: 3918 f53d 171d 303e 8e91 223e 40f9 803d
000003d0: 7ff2 593d fc3f b73c 4873 a43d c006 c8bc
000003e0: 94c0 b33c ba1f e73c 92b7 96bb e2f1 c3bc
000003f0: c9b5 2ebc c005 aa3c 90cd 87bd 3527 7dbd

conv2.bias f4 [16]
-0.05234756 0.0026770467 -0.009973925 0.07651003 0.010046048 -0.036850676 0.012891158 0.0008841802
0.04221542 -0.035261974 -0.008657141 0.01903772 -0.03928086 0.089508325 -0.03267235 0.06508352
00000000: 656a 56bd 6471 2f3b ac69 23bc 4ab1 9c3d
00000010: 2e98 243c bcf0 16bd 7035 533c 54c8 673a
00000020: 14ea 2c3d dc6e 10bd aed6 0dbc fef4 9b3c
00000030: f8e4 20bd 2450 b73d 71d3 05bd 824a 853d

fc1.weight f4 [128, 256]
0.031585664 -0.044861317 0.02467445 0.010573061 -0.056363314 -0.0042256713 -0.03715666 0.061969873
-0.02468414 0.022081269 -0.03208652 -0.059006367 -0.049909715 -0.03508485 -0.04496781 0.028323427
0.015471072 -0.02907824 0.0073976167 0.019631276 0.062383104 -0.040739376 -0.062150914 -0.014631046
-0.020340558 0.020831963 -0.022467665 0.007994653 0.009878539 0.0010289256 -0.05944892 -0.054772377
-0.06119883 -0.038203448 0.012963897 -0.042539876 -0.003302892 -0.009957619 0.051040005 -0.041125108
0.0070748823 -0.0590195 0.01848524 0.034387644 0.0070725805 0.011311946 0.013448317 -0.03984702
-0.031982396 0.026974114 -0.06065134 0.016513092 -0.003075836 0.045268867 0.055052664 -0.014676392
0.049824495 0.018983424 -0.03243415 -0.04321715 0.019102432 0.031475898 0.01291228 0.03767812
-0.011476577 -0.0014358246 0.042732287 -0.042905647 0.026727922 -0.062115904 -0.05899818 -0.008124839
0.0061757737 -0.03668572 0.03405091 0.058875233 0.019009192 -0.010807523 0.01389273 0.032231566
-0.04496543 -0.059025377 -0.0502508 0.00794445 -0.003306887 0.053036664 0.04893103 -0.029628687
-0.019120757 0.0056004603 0.029371759 0.028984884 0.029052503 0.029722072 -0.008923363 -0.0027543516
-0.040921453 -0.010612795 -0.03402561 -0.022959186 0.049087297 -0.04337989 -0.04359075 -0.031584334
-0.015353534 -0.031397678 0.05353138 0.009525246 0.02033955 0.03549302 -0.04158438 -0.054270823
-0.058396656 -0.016329564 0.055031758 0.024959318 -0.059066456 -0.04446633 -0.058985807 0.03347536
-0.0152352555 0.0017787864 -0.0028995774 -0.0052699745 -0.01950465 0.003352609 0.037171282 0.04814678
-0.039314587 -0.024794517 0.03236031 -0.016009174 -0.03330006 -0.015132216 0.03143108 0.0058778417
-0.041144982 0.014860946 0.020002056 -0.04038445 0.056369606 0.041929614 -0.011981484 -0.011197609
0.05637492 -0.011811312 0.020009069 0.057066668 -0.042346098 -0.017603828 -0.055900656 -0.003100593
0.03959824 -0.055925563 0.032147013 -0.01530555 -0.029840374 -0.051911898 0.05974219 0.050272
0.029039104 -0.05116267 0.051134687 -0.055834968 -0.037272017 0.059597664 0.049862564 -0.04404168
0.057055783 -0.033114403 0.0487246 -0.032748763 -0.03189329 -0.016558396 0.045664586 -0.04731244
-0.048552282 0.046490263 -0.02830081 0.0107247075 -0.023347704 0.0027657303 0.018894656 0.0016922299
-0.06185435 0.0062301126 0.059884567 -0.043270767 -0.04199696 0.01797324 -0.001131224 -0.015065425
-0.056495797 0.030808873 0.0044371365 -0.04620372 -0.0046177227 -0.039750364 -0.049475513 0.033598427
0.04071812 0.0017761313 -0.061993066 0.04564725 0.055023476 -0.008119851 -0.03341482 0.042551573
-0.02033834 -0.042189516 -0.03733997 -0.04250342 0.023976376 -0.056607183 0.009372806 0.019582044
0.011195924 0.0053988355 0.05021723 -0.046181455 0.04605009 -0.053451225 -0.03280002 0.0605685
-0.027023032 0.051342268 -0.0136881 0.059601296 -0.05116257 -0.03018553 -0.027374465 0.028013581
0.013266143 -0.03706973 -0.014861739 0.0026415607 -0.031242942 -0.061529167 -0.0113333985 0.03335197
-0.042527273 -0.01991972 -0.031144071 0.008266228 0.044474013 0.061880123 0.022174003 -0.051486235
0.03583731 -0.015523091 -0.0038425936 -0.058924578 0.034980148 0.062345136 -0.034857698 -0.043993056
00000000: f85f 013d 80c0 37bd 1222 ca3c a23a 2d3c
00000010: 38dd 66bd 8077 8abb 9531 18bd 1fd4 7d3d
00000020: 6536 cabc c7e3 b43c 286d 03bd a9b0 71bd
00000030: 216e 4cbd 22b5 0fbd 2b30 38bd 8806 e83c
00000040: 617a 7d3c 7d35 eebc b567 f23b c5d1 a03c
00000050: 6d85 7f3d 55de 26bd f591 7ebd 0eb7 6fbc
00000060: 3ea1 a6bc cba7 aa3c 1c0e b8bc 01fc 023c
00000070: 98d9 213c 04dd 863a b680 73bd 0059 60bd
00000080: a0ab 7abd 387b 1cbd 8666 543c 4b3e 2ebd
00000090: 5575 58bb 4825 23bc 530f 513d cd72 28bd
000000a0: 6ad4 e73b 6ebe 71bd 5c6e 973c 0fda 0c3d
000000b0: 1bc1 e73b be55 393c 5456 5c3c a136 23bd
000000c0: f9ff 02bd d1f8 dc3c 8a6d 78bd 7746 873c
000000d0: f793 49bb d96b 393d e77e 613d 4075 70bc
000000e0: c514 4c3d 2083 9b3c acd9 04bd 7704 31bd
000000f0: b47c 9c3c dfec 003d 078e 533c 5f54 1a3d
00000100: 4108 3cbc 4732 bcba 0d08 2f3d d5bd 2fbd
00000110: 84f4 da3c 3f6d 7ebd 13a8 71bd 0b1e 05bc
00000120: 255e ca3b c443 16bd f878 0b3d 2827 713d
00000130: 2ab9 9b3c 0912 31bc 559e 633c 3f05 043d
00000140: ac2d 38bd 98c4 71bd c8d3 4dbd 7029 023c
00000150: 5cb8 58bb f93c 593d e76b 483d dcb7 f2bc
00000160: 22a3 9cbc 1184 b73b 0b9d f03c b571 ed3c
00000170: 84ff ed3c b47b f33c 4c33 12bc 5a82 34bb
00000180: 419d 27bd 4ae1 2dbc 705e 0bbd e714 bcbc
00000190: c30f 493d 1daf 31bd 378c 32bd 935e 01bd
000001a0: 648d 7bbc da9a 00bd b843 5b3d c70f 1c3c
000001b0: 219f a63c 2161 113d 6254 2abd 154b 5ebd
000001c0: 5531 6fbd 94c5 85bc fb68 613d 7c77 cc3c
000001d0: abef 71bd 5422 36bd 1a9b 71bd 761d 093d
000001e0: 4b9d 79bc 2b26 e93a d606 3ebb c0af acbb
000001f0: 37c8 9fbc 72b7 5b3b ea40 183d 8f35 453d
00000200: 5508 21bd df1d cbbc 3f8c 043d ac25 83bc
00000210: a565 08bd 1ded 77bc e0bd 003d e99a c03b
00000220: a487 28bd 537b 733c 5adb a33c 2a6a 25bd
00000230: d1e3 663d 63be 2b3d fc4d 44bc 2d76 37bc
00000240: 63e9 663d 3c84 41bc 0fea a33c bdbe 693d
00000250: 1a73 2dbd e735 90bc 16f8 64bd 5233 4bbb
00000260: c431 223d 3412 65bd 96ac 033d 21c4 7abc
00000270: cd73 f4bc 92a1 54bd 3ab4 743d 03ea 4d3d
00000280: 6ae3 ed3c f38f 51bd 9b72 513d 35b3 64bd
00000290: 8baa 18bd ae1c 743d b03c 4c3d 0c65 34bd
000002a0: 53b3 693d f8a2 07bd 7293 473d 9123 06bd
000002b0: 8aa2 02bd 79a5 87bc ca0a 3b3d b0ca 41bd
000002c0: c2de 46bd 936c 3e3d 1ad7 e7bc afb6 2f3c
000002d0: af43 bfbc 4141 353b f7c8 9a3c d0cd dd3a
000002e0: fd5a 7dbd f925 cc3b 8549 753d b03c 31bd
000002f0: 0105 2cbd 9e3c 933c 9445 94ba f9d4 76bc
00000300: 2368 67bd e462 fc3c 6665 913b 1d40 3dbd
00000310: 4450 97bb 47d1 22bd d6a6 4abd 819e 093d
00000320: 0bc8 263d 14cd e83a 71ec 7dbd 9cf8 3a3d
00000330: 4c60 613d 2009 05bc fadd 08bd 8f4a 2e3d
00000340: 979c a6bc eace 2cbd ccf1 18bd 1118 2ebd
00000350: 1b6a c43c efdc 67bd 6690 193c 866a a03c
00000360: 1c6f 373c b7e8 b03b 95b0 4d3d c428 3dbd
00000370: 059f 3c3d acef 5abd 5059 06bd ad16 783d
00000380: 685f ddbc 454c 523d 0d44 60bc 7d20 743d
00000390: d88f 51bd a547 f7bc 6a40 e0bc bd7c e53c
000003a0: 3d5a 593c 6ed6 17bd a77e 73bc 091e 2d3b
000003b0: 33f1 ffbc 0206 7cbd b8af 39bc 139c 083d
000003c0: 1431 2ebd ae2e a3bc da21 ffbc 136f 073c
000003d0: 622a 363d 0376 7d3d 41a6 b53c 3be3 52bd
000003e0: 25ca 123d 9054 7ebc 06d4 7bbb e65a 71bd
000003f0: 5847 0f3d 9d5d 7f3d f2c6 0ebd 1032 34bd

fc1.bias f4 [128]
-0.06012332 -0.027203541 -0.0039251857 0.017536486 -0.04729867 -0.03807708 0.044286102 -0.023031889
0.016886825 0.012153629 -0.005747308 -0.037995692 0.03414691 -0.022726674 -0.039636735 -0.004686989
-0.045639046 -0.035313573 -0.057341535 -0.025817366 0.007974725 -0.0030848754 -0.019898742 -0.0115058925
-0.005956504 -0.0505125 0.056572262 -0.024411898 0.036551 -0.032190382 -0.0010654554 -0.0025163214
0.01138327 -0.005636927 -0.04935629 0.062077213 0.008796454 -0.007301593 0.06284648 0.0007644517
-0.045917228 0.01951635 0.048607133 0.0316488 -0.017127745 -0.005994353 -0.006626294 -0.0019063351
0.014411131 0.018908832 0.021828188 -0.03522628 0.018805237 0.021505715 -0.047971554 0.058930818
0.0037044773 0.035318512 -0.015946882 -0.01975865 -0.016093612 -0.048641797 -0.050350767 0.05556689
-0.010234983 0.048563235 -0.03421976 -0.038911738 0.04864889 0.029094553 -0.022518797 -0.060690574
-0.04827434 0.04044889 0.018923406 0.033600274 0.011728351 -0.02131859 -0.038090307 -0.023032477
0.046279505 -0.03418777 -0.021826295 0.023129335 -0.04884967 -0.05579842 0.024689687 -0.028350366
0.032572497 -0.05201066 -0.024155363 0.03910852 -0.02523261 0.012999088 -0.057452966 -0.011311502
-0.02481353 0.036743898 0.02434431 0.0604545 0.02474844 -0.059479304 -0.030776994 -0.013504227
0.021151109 0.051233687 -0.008603814 -0.023516333 0.0010308094 -0.02932407 -0.05473905 0.037102867
-0.012402872 0.04256183 -0.037279513 0.04029101 0.046472903 0.0033551962 -0.045192465 0.010111797
-0.016167661 0.048351627 -0.041193526 -0.051643126 -0.009296267 0.043725003 0.06174185 0.0010907939
00000000: df43 76bd f6d9 debc d89e 80bb ada8 8f3c
00000010: 40bc 41bd b6f6 1bbd 5865 353d 5fad bcbc
00000020: 3d56 8a3c 0420 473c ea53 bcbb 5fa1 1bbd
00000030: a1dd 0b3d 4a2d babc 215a 22bd 5095 99bb
00000040: 02f0 3abd f7a4 10bd f5de 6abd f17e d3bc
00000050: 6ca8 023c 9f2b 4abb b002 a3bc 3683 3cbc
00000060: c72e c3bb 32e6 4ebd 51b8 673d 76fb c7bc
00000070: 80b6 153d 10da 03bd c0a6 8bba dee8 24bb
00000080: e580 3a3c f9b5 b8bb d229 4abd ad44 7e3d
00000090: 011f 103c 3442 efbb a8b5 803d 7c65 483a
000000a0: b413 3cbd c1e0 9f3c 4618 473d 2ca2 013d
000000b0: 7c4f 8cbc 476c c4bb 6221 d9bb fedd f9ba
000000c0: aa1c 6c3c b2e6 9a3c 07d1 b23c 6f49 10bd
000000d0: 710d 9a3c c12c b03c d27d 44bd 7161 713d
000000e0: d1c6 723b 25aa 103d 09a3 82bc e4dc a1bc
000000f0: c0d6 83bc 9f3c 47bd 9b3c 4ebd 1b9a 633d
00000100: a1b0 27bc 3eea 463d 052a 0cbd ea61 1fbd
00000110: 0f44 473d b357 ee3c 5779 b8bc ae96 78bd
00000120: 50bb 45bd bcad 253d 4205 9b3c 71a0 093d
00000130: 4528 403c 53a4 aebc 9504 1cbd 9bae bcbc
00000140: 948f 3d3d 7a08 0cbd 0fcd b2bc bb79 bd3c
00000150: 9716 48bd e28c 64bd 0742 ca3c 073f e8bc
00000160: bd6a 053d 2109 55bd 78e1 c5bc 4130 203d
00000170: 9eb4 cebc 20fa 543c cd53 6bbd e153 39bc
00000180: be45 cbbc c580 163d b86d c73c 239f 773d
00000190: 3ebd ca3c 92a0 73bd 0920 fcbc d540 5dbc
000001a0: 1745 ad3c 6ada 513d 03f7 0cbc 53a5 c0bc
000001b0: 391c 873a 0839 f0bc 0e36 60bd 2df9 173d
000001c0: 6a35 4bbc 5055 2e3d 67b2 18bd 3008 253d
000001d0: 5f5a 3e3d dae2 5b3b bc1b 39bd f3ab 253c
000001e0: 0b72 84bc 5b0c 463d 8bba 28bd be87 53bd
000001f0: 5f4f 18bc fd18 333d 06e5 7c3d f8f8 8e3a

fc2.weight f4 [64, 128]
0.0768299 -0.00068255066 0.046345565 -0.054996867 -0.052473795 0.008710237 -0.055241197 0.026796464
0.036800444 -0.024122832 0.047139086 0.0042032003 0.06320881 -0.03813461 0.04419861 -0.0138759315
0.033826403 0.034357868 -0.03262863 0.0716789 0.035291824 0.01883556 0.0057076663 -0.08504734
-0.080809355 -0.08021857 -0.014398016 -0.08656991 -0.0720226 0.032264926 0.011713771 -0.075473554
0.02924735 -0.06682786 -0.04983903 -0.03759779 -0.02410686 -0.0015410014 -0.027037228 -0.0049854466
-0.07420938 0.012657254 -0.03358655 -0.04831154 -0.05865827 0.034069885 0.01709457 -0.06772946
0.043809153 -0.07468931 -0.049047954 0.0059160762 -0.07946782 -0.07678163 0.0069659404 -0.06646443
0.061319612 0.08807297 0.0104452465 -0.06402057 -0.0057028737 0.06000917 -0.06571314 0.048549168
-0.015421922 0.06774544 -0.06003406 -0.052888863 0.023586838 0.00798891 0.007821124 0.0779674
-0.013551253 -0.08773434 0.068620406 0.0027624543 0.08196448 0.007890558 0.06142915 -0.009336068
-0.07808109 0.06256907 -0.07465363 -0.014472723 -0.041479412 -0.011119321 -0.08748381 -0.040745597
0.0070039933 -0.03968866 0.016653175 0.06457187 0.0026903257 -0.011095978 -0.046838727 0.04343266
0.08204387 -0.04239455 -0.048567772 -0.036404803 0.02545654 0.005167626 0.03150493 0.049986105
-0.07638676 0.015440807 0.017321596 0.039438613 -0.039742656 -0.04168913 -0.047161825 0.023760794
0.01436326 -0.05855194 -0.009899491 0.062424473 -0.04647934 0.080668665 0.0047290623 0.018211083
-0.021021664 -0.001565782 0.0033098161 0.0034868075 0.0718659 -0.07103025 0.08174614 0.025944393
-0.07354392 0.011309313 0.10638685 -0.03374204 0.0037743226 0.07089817 0.11568227 -0.078853264
0.0013690264 0.100263655 0.00713926 0.006790391 -0.062060617 0.0064538284 0.11196235 0.06979995
-0.025963774 0.016156401 0.08237595 0.06652623 -0.041132785 -0.026403766 0.059337698 0.043734834
-0.024000533 0.10015129 -0.028644923 -0.05669262 -0.01691191 0.047497816 0.054728724 -0.047558043
0.04559782 0.0626928 0.00882639 -0.07514947 0.109356105 -0.049884457 0.06753691 -0.012416693
0.015198583 -0.049175214 -0.083234385 0.04296655 -0.08885222 -0.028062874 0.06731484 0.047625564
-0.07931078 -0.04670113 0.06091921 0.08093627 0.017127618 0.06438722 0.07077391 0.018425066
-0.0021377206 0.014651257 0.108699866 0.04543886 -0.047788005 -0.10272026 0.0038244738 -0.06525042
-0.018144337 0.018448893 0.010026748 -0.041918255 0.019145371 -0.055000417 -0.0062670093 -0.0017721537
-0.037153065 -0.028992001 -0.0755645 0.022099061 -0.024649408 -0.06580287 0.035312958 -0.012432035
0.004740047 0.044905867 -0.03914366 -0.049499735 0.049968906 -0.029559638 -0.060474593 0.02077746
-0.0013004785 -0.032263085 -0.061377075 0.016076626 0.079007305 -0.010183213 -0.025488758 0.018057056
0.057731472 0.021419471 0.053104084 -0.017666446 0.00820823 0.078358196 -0.026497832 0.0049984786
-0.0514628 -0.022749634 0.03897549 -0.07824557 -0.0072879726 0.07265959 0.08144738 0.02440473
-0.09323015 -0.10886248 0.053344734 -0.07723292 -0.032959428 0.029488042 -0.061770998 -0.07128146
-0.069318995 0.05438103 0.06884513 -0.031577703 0.0065906523 0.03191827 -0.090063125 0.091665424
00000000: ff58 9d3d 33ed 32ba d9d4 3d3d 6544 61bd
00000010: c3ee 56bd 62b5 0e3c 9844 62bd 4284 db3c
00000020: 10bc 163d 3f9d c5bc ea14 413d 00bb 893b
00000030: 9f73 813d 0933 1cbd 9a09 353d e057 63bc
00000040: 8e8d 0a3d d6ba 0c3d 99a5 05bd 63cc 923d
00000050: 298e 103d 084d 9a3c 6007 bb3b 4d2d aebd
00000060: 607f a5bd a249 a4bd a8e5 6bbc 914b b1bd
00000070: 9680 93bd 3a28 043d 1eeb 3f3c e191 9abd
00000080: 2398 ef3c 0cdd 88bd 0324 4cbd 2400 1abd
00000090: c07b c5bc 6dfb c9ba 2d7d ddbc f55c a3bb
000000a0: 16fb 97bd 5f60 4f3c 0d92 09bd 52e2 45bd
000000b0: a743 70bd dd8c 0b3d e909 8c3c beb5 8abd
000000c0: 3a71 333d b5f6 98bd 82e6 48bd a5db c13b
000000d0: 06c0 a2bd b03f 9dbd 8b42 e43b 811e 88bd
000000e0: 462a 7b3d 9a5f b43d 8a22 2b3c 371d 83bd
000000f0: 2cdf babb 2dcc 753d 9c94 86bd 7edb 463d
00000100: 3bac 7cbc 1fbe 8a3d 46e6 75bd fea1 58bd
00000110: 2f39 c13c ebe3 023c 2c24 003c 5fad 9f3d
00000120: 1306 5ebc 10ae b3bd db88 8c3d 4b0a 353b
00000130: fedc a73d 6647 013c 229d 7b3d 4ff6 18bc
00000140: fae8 9fbd 3624 803d 01e4 98bd 001f 6dbc
00000150: 51e6 29bd d02d 36bc b62a b3bd dbe4 26bd
00000160: c181 e53b 9490 22bd 3d6c 883c 423e 843d
00000170: 2d50 303b e8cb 35bc f7d9 3fbd 72e6 313d
00000180: 9e06 a83d e8a5 2dbd 00ef 46bd 341d 15bd
00000190: 3c8a d03c 3055 a93b 500b 013d 3bbe 4c3d
000001a0: a970 9cbd 70fb 7c3c 05e6 8d3c 628a 213d
000001b0: 32c9 22bd 39c2 2abd c22c 41bd ffa5 c23c
000001c0: e153 6b3c 29d4 6fbd 7a31 22bc ceb0 7f3d
000001d0: 1f61 3ebd 9d35 a53d 40f6 9a3b 692f 953c
000001e0: a035 acbc ed3a cdba 80e9 583b ec82 643b
000001f0: 6e2e 933d 4f78 91bd 856a a73d 5689 d43c
00000200: 329e 96bd b24a 393c 59e1 d93d 1835 0abd
00000210: a05a 773b 0f33 913d d3ea ec3d d27d a1bd
00000220: e770 b33a 0857 cd3d 74f0 e93b ee81 de3b
00000230: 4633 7ebd a37a d33b 844c e53d 47f3 8e3d
00000240: fbb1 d4bc 6e5a 843c b9b4 a83d e73e 883d
00000250: da7a 28bd b64c d8bc 160c 733d 4c23 333d
00000260: c49c c4bc 1f1c cd3d c2a8 eabc 8536 68bd
00000270: d98a 8abc 128d 423d 3a2b 603d 39cc 42bd
00000280: c8c4 3a3d 1565 803d 909c 103c f7e7 99bd
00000290: 18f6 df3d a553 4cbd cb50 8a3d 636f 4bbc
000002a0: 7a03 793c f36b 49bd ca76 aabd b1fd 2f3d
000002b0: 27f8 b5bd 1de4 e5bc 5ddc 893d 0613 433d
000002c0: b16d a2bd af49 3fbd 6c86 793d eac1 a53d
000002d0: 384f 8c3c 72dd 833d e9f1 903d 2af0 963c
000002e0: 0019 0cbb d30b 703c 099e de3d 191e 3a3d
000002f0: 5bbd 43bd 005f d2bd 06a4 7a3b 03a2 85bd
00000300: 6fa3 94bc 2222 973c 3b47 243c 7ab2 2bbd
00000310: c1d6 9c3c 1e48 61bd 7c5b cdbb 9c47 e8ba
00000320: d02d 18bd a280 edbc 90c1 9abd 1709 b53c
00000330: 8eed c9bc a8c3 86bd 52a4 103d bcaf 4bbc
00000340: 6552 9b3b 37ef 373d 1a55 20bd 3cc0 4abd
00000350: 32ac 4c3d 0e27 f2bc 35b4 77bd 7e35 aa3c
00000360: d174 aaba 4c26 04bd 8766 7bbd 21b3 833c
00000370: 95ce a13d 7ed7 26bc cdcd d0bc 64ec 933c
00000380: d677 6c3d e377 af3c ab83 593d 39b9 90bc
00000390: d07b 063c 437a a03d fb11 d9bc 47ca a33b
000003a0: a8ca 52bd 715d babc c3a4 1f3d 373f a0bd
000003b0: f2cf eebb 8dce 943d e2cd a63d 6eec c73c
000003c0: 73ef bebd 4bf3 debd 0280 5a3d 4b2c 9ebd
000003d0: 7700 07bd e890 f13c 9603 7dbd 04fc 91bd
000003e0: 1ef7 8dbd a5be 5e3d adfe 8c3d 9f57 01bd
000003f0: 66f6 d73b bbbc 023d 0473 b8bd 15bb bb3d

fc2.bias f4 [64]
-0.012001589 0.06472601 -0.035532266 -0.041278902 0.02948132 0.06968414 0.107957445 -0.0033520753
-0.033697646 0.021843862 -0.021831026 0.05802684 -0.03406541 0.045990825 0.086199224 -0.056826342
-0.0887444 0.05347585 0.012820815 -0.036147602 -0.07076178 -0.08230627 0.013328514 -0.07925125
-0.052773997 0.0877967 0.06906975 -0.03799799 -0.03132005 -0.055379968 -0.016121302 -0.03428795
0.036937024 -0.06665875 0.015612289 0.061793715 -0.039164722 0.06424881 0.058540262 -0.015195074
-0.09170694 -0.023879616 -0.05582639 0.032027524 0.07573084 -0.08119527 0.057740036 -0.050293
0.08934637 -0.013301615 -0.02167415 0.04164837 0.025614783 -0.048300277 -0.055393077 -0.035913046
0.04720315 0.0936027 0.001378201 0.08365704 0.05110881 0.043488227 -0.036525086 0.021969814
00000000: 50a2 44bc 128f 843d 488a 11bd 1114 29bd
00000010: cf82 f13c 8fb6 8e3d cb18 dd3d 7eae 5bbb
00000020: 8b06 0abd e6f1 b23c fbd6 b2bc 8dad 6d3d
00000030: 2c88 0bbd e060 3c3d 3889 b03d bdc2 68bd
00000040: a0bf b5bd 7e09 5b3d 650e 523c 820f 14bd
00000050: 8deb 90bd 3190 a8bd d75f 5a3c 7b4e a2bd
00000060: 8c29 58bd c2ce b33d 7174 8d3d c8a3 1bbd
00000070: 7449 00bd 1bd6 62bd d210 84bc 8571 0cbd
00000080: 474b 173d 6284 88bd b0ca 7f3c 681b 7d3d
00000090: 306b 20bd e194 833d eac7 6f3d c2f4 78bc
000000a0: d9d0 bbbd 2f9f c3bc 36aa 64bd 4b2f 033d
000000b0: c518 9b3d b549 a6bd d180 6c3d 0800 4ebd
000000c0: 3bfb b63d 04ef 59bc fd8d b1bc 7b97 2a3d
000000d0: 18d6 d13c 83d6 45bd dae3 62bd 8f19 13bd
000000e0: 1758 413d c6b2 bf3d c0a4 b43a 6254 ab3d
000000f0: 7957 513d b620 323d 549b 15bd 0afa b33c

fc3.weight f4 [10, 64]
0.0075832033 -0.0780133 0.19215861 -0.101756856 -0.018272202 -0.079672486 0.0029644747 -0.1811323
-0.112701796 -0.08754131 -0.1137341 -0.056151226 -0.052390847 0.0889084 0.015050653 0.07140361
0.06657105 -0.26212704 -0.053490143 -0.13179334 -0.0346578 0.052879296 -0.20065536 0.11869728
-0.071729824 -0.043697078 -0.08620938 0.12149551 0.14945689 -0.120668046 -0.045272525 0.07124926
0.24471778 0.016512053 0.19103323 -0.11047468 0.14291272 -0.17450921 -0.03889861 -0.13821818
-0.11565827 0.05008964 -0.10890706 0.11584663 -0.019110264 0.066848755 -0.1422073 0.06427121
-0.06453112 -0.08216492 0.15018485 -0.11708546 -0.12561649 0.1308063 -0.17089936 0.20273095
-0.039937407 -0.19980387 0.07180637 0.21834244 0.056678545 0.15528522 -0.119241215 -0.093151875
-0.07074289 0.13880023 -0.118673325 0.020721659 0.088732034 0.054620102 0.14241698 0.20213486
0.24584585 -0.021984378 -0.026209524 -0.094693415 -0.12593168 0.088370584 -0.0073153838 0.059970558
-0.008464528 -0.17191558 -0.030068517 0.025433077 0.00669917 -0.042775318 0.025759313 0.067942105
0.0307571 -0.122020654 0.18490867 0.15934435 -0.0016169794 -0.06702059 -0.27675673 0.06711684
-0.1590436 -0.09806235 -0.2850619 -0.15197639 0.20298956 0.040160388 -0.10124848 -0.12600042
-0.2819984 -0.049622145 -0.009933382 0.049344562 0.06843218 0.019380303 0.19316728 0.07705852
0.1754575 -0.089607365 -0.20590721 0.1192815 0.15024996 0.10119944 0.0325404 -0.3536497
0.051843815 0.045008548 0.108280376 0.09398924 0.07480011 0.100142464 0.110456906 0.09349903
-0.011927881 -0.09862619 -0.1628338 0.11677617 -0.1054722 0.20012622 0.10388828 0.27144098
0.090428635 -0.10883616 -0.047690686 0.034804296 0.16619305 0.0008096534 0.18827423 -0.09469057
-0.06911342 -0.16625328 -0.15349054 -0.09563576 -0.06900796 0.10022825 -0.12568237 0.07436099
-0.04800886 -0.1350785 0.2969762 0.054616723 -0.07169653 -0.09196292 -0.12189 -0.07189393
0.020476222 -0.085165136 0.16934326 -0.11199366 -0.032972638 0.009292647 0.00047834398 -0.025505146
0.29103467 0.034901474 -0.09806119 -0.043950457 0.1033619 0.09015528 -0.16887087 0.084640816
-0.0810183 0.039867457 -0.29586065 -0.101320565 0.15628947 0.10939791 -0.07195346 -0.0112192035
-0.008027785 0.025034813 -0.09814626 0.17002709 0.09931644 0.13902023 -0.07488767 0.11430755
0.11448819 -0.21176234 -0.11972145 0.09454743 0.27354234 -0.11806848 0.26826397 -0.29288426
-0.042923093 0.10283279 -0.05219406 0.123555556 -0.03685754 0.12395885 -0.14053576 0.0190904
0.090782985 -0.22639684 -0.07173881 0.01763026 0.07288877 -0.046959322 0.14342971 -0.105375506
-0.09864335 -0.004886616 0.06631894 0.10965108 0.11185289 -0.049134016 0.15214583 0.08233483
-0.077895634 0.016418153 -0.055358365 0.16444604 0.13543779 -0.046455115 0.086025015 0.099943414
0.11430617 -0.10166621 -0.124909565 -0.022490576 -0.17115304 -0.0701672 -0.053091124 0.10513382
-0.11306282 -0.10641537 -0.1923242 0.118604034 -0.047882937 -0.22937791 0.22198305 -0.11510907
-0.21162242 0.11174259 0.04226233 0.080658786 0.09231661 0.041943464 -0.12987123 0.29328302
00000000: 857c f83b 70c5 9fbd 3ac5 443e e665 d0bd
00000010: 96af 95bc 542b a3bd a247 423b bf7a 39be
00000020: 33d0 e6bd dc48 b3bd 6ced e8bd d4fe 65bd
00000030: c997 56bd 9b15 b63d 0497 763c 0e3c 923d
00000040: 6756 883d 8435 86be 7b18 5bbd d5f4 06be
00000050: 56f5 0dbd f697 583d 9978 4dbe 8f17 f33d
00000060: 16e7 92bd b5fb 32bd 8b8e b0bd a3d2 f83d
00000070: 3a0b 193e cf20 f7bd af6f 39bd 22eb 913d
00000080: 4c97 7a3e 4944 873c 379e 433e 8d40 e2bd
00000090: b657 123e 8bb2 32be 2654 1fbd 1189 0dbe
000000a0: 3ede ecbd cb2a 4d3d aa0a dfbd ff40 ed3d
000000b0: 218d 9cbc 00e8 883d ca9e 11be a0a0 833d
000000c0: e428 84bd 1546 a8bd 0fca 193e 80ca efbd
000000d0: 9ca1 00be 16f2 053e 3e00 2fbe b498 4f3e
000000e0: 6895 23bd 6399 4cbe 380f 933d 2995 5f3e
000000f0: c327 683d 1703 1f3e bd34 f4bd 69c6 bebd
00000100: a6e1 90bd a621 0e3e 000b f3bd 78c0 a93c
00000110: 24b9 b53d 54b9 5f3d c2d5 113e 71fc 4e3e
00000120: 04bf 7b3e 9518 b4bc 5bb5 d6bc 9fee c1bd
00000130: 3cf4 00be a3fb b43d e3b5 efbb b0a3 753d
00000140: ceae 0abc a30a 30be 4052 f6bc 0759 d03c
00000150: b684 db3b 2c35 2fbd 3205 d33c 3b25 8b3d
00000160: 50f6 fb3c f7e5 f9bd b358 3d3e 2a2b 233e
00000170: d3f0 d3ba 1742 89bd 0fb3 8dbe 8e74 893d
00000180: 53dc 22be ead4 c8bd a2f3 91be b39f 1bbe
00000190: 7fdc 4f3e 387f 243d 5d5b cfbd 4106 01be
000001a0: 1862 90be 9740 4bbd a0bf 22bc 861d 4a3d
000001b0: 2c26 8c3d 71c3 9e3c a5cd 453e dbd0 9d3d
000001c0: 22ab 333e 1184 b7bd 57d9 52be dc49 f43d
000001d0: 20db 193e a741 cf3d 1549 053d 9311 b5be
000001e0: 2e5a 543d e25a 383d 1ac2 dd3d 6e7d c03d
000001f0: cd30 993d 7e17 cd3d 3b37 e23d 6b7c bf3d
00000200: 296d 43bc 87fc c9bd e7bd 26be 5828 ef3d
00000210: cf01 d8bd e3ed 4c3e 61c3 d43d 50fa 8a3e
00000220: a632 b93d 7ee5 debd 4f57 43bd f38e 0e3d
00000230: 832e 2a3e eb3e 543a f6ca 403e 21ed c1bd
00000240: 568b 8dbd 4d3e 2abe a02c 1dbe aedc c3bd
00000250: 0c54 8dbd 7844 cd3d e1b2 00be 934a 983d
00000260: f0a4 44bd 0552 0abe 440d 983e c9b5 5f3d
00000270: a1d5 92bd 0e57 bcbd 77a1 f9bd 203d 93bd
00000280: c0bd a73c 0f6b aebd 5268 2d3e ef5c e5bd
00000290: 510e 07bd 3040 183c 3eca fa39 2bf0 d0bc
000002a0: 7f02 953e d9f4 0e3d 4ed4 c8bd 6505 34bd
000002b0: 67af d33d 55a3 b83d 7cec 2cbe 2a58 ad3d
000002c0: ecec a5bd 0f4c 233d 0c7b 97be 2881 cfbd
000002d0: 590a 203e 030c e03d 565c 93bd c0d0 37bc
000002e0: f986 03bc cf15 cd3c e800 c9bd 951b 2e3e
000002f0: 6b66 cb3d 525b 0e3e b55e 99bd 141a ea3d
00000300: c978 ea3d 3ad8 58be 8530 f5bd 15a2 c13d
00000310: be0d 8c3e e3cd f1bd e559 893e edf4 95be
00000320: 20d0 2fbd ff99 d23d 70c9 55bd b20a fd3d
00000330: eff7 16bd 23de fd3d 9be8 0fbe 7863 9c3c
00000340: 6eec b93d 93d4 67be cceb 92bd 566d 903c
00000350: b546 953d 6b58 40bd 3ddf 123e 1dcf d7bd
00000360: 8605 cabd e81f a0bb 39d2 873d bf90 e03d
00000370: 2113 e53d c040 49bd 1ecc 1b3e 2a9f a83d
00000380: bf87 9fbd 5d7f 863c 74bf 62bd 8b64 283e
00000390: 34b0 0a3e b847 3ebd e22d b03d 22af cc3d
000003a0: 5a19 ea3d 6036 d0bd 96d0 ffbd 283e b8bc
000003b0: be42 2fbe d2b3 8fbd 1476 59bd 6650 d73d
000003c0: 7b8d e7bd 4df0 d9bd a3f0 44be ace6 f23d
000003d0: e620 44bd 0be2 6abe 864f 633e 4ebe ebbd
000003e0: 8cb3 58be 4dd9 e43d 441b 2d3d 6f30 a53d
000003f0: 7e10 bd3d e9cc 2b3d f7fc 04be 3129 963e

fc3.bias f4 [10]
0.010906229 -0.075613245 -0.010654012 0.09744595 -0.10977504 0.076503836 -0.05038544 -0.030612051
-0.088691846 0.053911023
00000000: 0ab0 323c 1edb 9abd 2a8e 2ebc be91 c73d
00000010: bcd1 e0bd 0bae 9c3d f760 4ebd 20c6 fabc
00000020: 12a4 b5bd ced1 5c3d
